…
503, 4025.4] 53938 (307.503, 4025.4] 53939 (307.503, 4025.4] Name: price, Length: 53940, dtype: category Categories (5, interval[float64, right]): [(307.503, 4025.4] < (4025.4, 7724.8] < (7724.8, 11424.2] < (11424.2, 15123.6] < (15123.6, 18823.0]] Custom bins Alternatively, we can use custom bins. Assume from our domain knowledge we know that diamonds up to \\$2,500 are purchased by a certain category of customers, and those that are priced over \\$2,500 are targeted at a different category. We can set up two bins \u2013 0-2500, and 2500-max. pd.cut(diamonds.price, bins = [0, 2500, 100000]) 0 (0, 2500] 1 (0, 2500] 2 (0, 2500] 3 (0, 2500] 4 (0, 2500] ... 53935 (2500, 100000] 53936 (2500, 100000] 53937 (2500, 100000] 53938 (2500, 100000] 53939 (2500, 100000] Name: price, Length: 53940, dtype: category Categories (2, interval[int64, right]): [(0, 2500] < (2500, 100000]] diamonds['pricebin'] = pd.cut(diamonds.price, bins = [0, 2500, 100000]) diamonds[['price', 'pricebin']].sample(6) .dataframe tbody tr th:only-of-type { vertical-align: middle; } .dataframe tbody tr th { vertical-align: top; } .dataframe thead th { text-align: right; } price pricebin 14258 5775 (2500, 100000] 32100 781 (0, 2500] 51512 2384 (0, 2500] 43692 1436 (0, 2500] 36141 928 (0, 2500] 16990 6787 (2500, 100000] # With custom labels diamonds['pricebin'] = pd.cut(diamonds.price, bins = [0, 2500, 100000], labels=['Low Price', 'High Price']) diamonds[['price', 'pricebin']].sample(6) .dataframe tbody tr th:only-of-type { vertical-align: middle; } .dataframe tbody tr th { vertical-align: top; } .dataframe thead th { text-align: right; } price pricebin 27698 648 Low Price 52122 2464 Low Pri
…
stantiate the model model.add(Input(shape=(X_train.shape[1],))) ## INPUT layer model.add(Dense(200, activation = 'relu')) ## Hidden layer 1 model.add(Dense(200, activation = 'relu')) ## Hidden layer 2 model.add(Dense(200, activation = 'relu')) ## Hidden layer 3 model.add(Dense(200, activation = 'relu')) ## Hidden layer 4 model.add(Dense(1, activation = 'linear')) ## OUTPUT layer model.summary() Model: \"sequential\" _________________________________________________________________ Layer (type) Output Shape Param # ================================================================= dense (Dense) (None, 200) 5400 dense_1 (Dense) (None, 200) 40200 dense_2 (Dense) (None, 200) 40200 dense_3 (Dense) (None, 200) 40200 dense_4 (Dense) (None, 1) 201 ================================================================= Total params: 126201 (492.97 KB) Trainable params: 126201 (492.97 KB) Non-trainable params: 0 (0.00 Byte) _________________________________________________________________ Compile the model. Next, we compile() the model. The compile step configures the learning process. As part of this step, we define at least three more things: - 
…
l.add(MaxPooling2D(pool_size=2)) model.add(Conv2D(filters=64, kernel_size=3, activation=\"relu\")) model.add(MaxPooling2D(pool_size=2)) model.add(Conv2D(filters=128, kernel_size=3, activation=\"relu\")) model.add(Flatten()) model.add(Dense(10, activation='softmax')) ## compile the keras model model.compile(loss='binary_crossentropy', optimizer='adam', metrics=['accuracy']) model.summary() Model: \"sequential_6\" _________________________________________________________________ Layer (type) Output Shape Param # ================================================================= conv2d_6 (Conv2D) (None, 26, 26, 32) 320 max_pooling2d_4 (MaxPoolin (None, 13, 13, 32) 0 g2D) conv2d_7 (Conv2D) (None, 11, 11, 64) 18496 max_pooling2d_5 (MaxPoolin (None, 5, 5, 64) 0 g2D) conv2d_8 (Conv2D) (None, 3, 3, 128) 73856 flatten_2 (Flatten) (None, 1152) 0 dense_16 (Dense) (None, 10) 11530 ================================================================= Total params: 104202 (407.04 KB) Trainable params: 104202 (407.04 KB) Non-trainable params: 0 (0.00 Byte) _________________________________________________________________ model.compile(optimizer=\"rmsprop\", loss=\"sparse_categorical_crossentropy\", metrics=[\"accuracy\"]) model.fit(train_images, train_labels, epochs=5, batch_size
…
